project-3/mnist/mnist_model_fully_connected.pt (torch, 409559 bytes, 4 tensors)

weight f4 [128, 784]
0.029524539 -0.0065959916 -0.03499748 0.010275181 0.03306799 0.03104734 -0.035178065 0.03214631
0.010838918 -0.032885548 0.034286972 0.0019782968 0.0048951693 0.013756886 0.010713186 -0.021344684
0.020449877 0.025263056 -0.018410351 0.017258234 -0.00635048 -0.023161229 -0.01373045 -0.0041809976
-0.01964582 0.020075407 0.021033224 -0.016925652 -0.022170514 6.366521e-06 0.007818669 0.021394163
-0.0046821367 -0.022876784 -9.029731e-05 0.027096104 0.014159058 0.030353747 0.0028893203 -0.023670975
-0.0064930157 -0.032264467 0.031477854 -0.0003121376 0.014538349 0.0069519565 -0.018594645 0.0028520897
0.0101083405 -0.034792114 -0.024420824 0.034907382 0.017784663 0.017311245 -0.01441285 -0.03361085
-0.014531963 -0.022142727 -0.013658682 0.035193298 0.02671602 0.024733825 -0.029722417 0.013604445
-0.020955523 -0.008152955 0.023655148 -0.0073477547 0.031174088 0.01280302 -0.015554886 -0.010557029
0.014485777 -0.01272362 -0.03903257 0.0044864984 0.012813063 0.016382664 -0.0012544831 0.005661135
0.009366983 -0.024333244 0.0076174624 -0.009508537 0.0050391294 0.00898996 -0.029848415 0.032592308
0.03144904 -0.031970672 -0.008685924 0.014178518 -0.011741329 -0.0033742394 -0.03993506 0.008469276
-0.06359785 -0.008396501 -0.06392212 -0.047421183 -0.09865713 -0.08328616 -0.094487436 -0.007818328
-0.06260447 -0.045393705 0.0018199587 -0.0073428974 -0.0034383384 -0.019037776 -0.018619185 -0.027034437
-0.035658382 -0.024011761 0.019078085 0.0069548893 -0.020737572 0.025919506 0.0019080509 -0.028963864
-0.038939778 -0.014492832 -0.0653977 -0.067698754 -0.123793416 -0.04737327 -0.09045208 -0.09154499
-0.04079837 0.004212014 0.015952582 0.006280923 -0.016956609 -0.021225994 -0.028242601 -0.037402526
-0.023090566 -0.018966718 -0.0005300464 0.03190004 0.009938613 -0.02930844 0.013309024 -0.0053321263
-0.024937479 0.0195141 -0.016000586 -0.040949725 0.06999047 0.040670518 -0.08360559 -0.03275202
-0.040035028 -0.03807605 -0.010955172 0.008832253 0.053556606 0.0014832072 -0.022963127 -0.001615785
-0.011549304 -0.030918995 0.05509134 -0.0034964473 0.02198963 -0.017737594 0.03355855 -0.022973113
-0.034922957 -0.02282211 0.0216342 0.01930734 0.014419654 0.020139698 -0.0120841935 -0.0028477083
0.0112735145 -0.0039351485 -0.0064943484 0.053220537 0.092009515 0.035067502 -0.024712179 -0.032819375
-0.054724175 0.06710374 0.016182462 0.017860364 -0.025939966 0.082153745 0.0375229 0.004360981
0.027309544 -0.013686485 -0.0033326596 -0.004829389 0.004590636 -0.016861562 0.00808373 0.020667886
0.022672247 0.013737093 0.014960758 -0.009347475 0.019598816 0.024886344 -0.028625527 -0.08745022
0.013028618 0.01225329 -0.05366106 -0.05675402 0.004883268 -0.009074762 0.124657504 0.094068445
0.06610088 0.15003332 0.12628607 0.062353514 -0.03118192 0.015582435 -0.028752523 -0.01545775
-0.014591854 -0.010452972 0.026423259 0.020014852 0.11200033 0.088416964 0.041045494 0.10589544
0.08925428 0.038620178 0.013400355 0.0012750084 0.049118023 0.082985185 0.035470463 -0.002626577
0.0012080976 0.02477962 0.032207645 0.10742188 0.10904027 0.03785855 0.09745842 0.10116484
-0.032512546 -0.04369128 0.006584234 -0.019441435 -0.010354607 -0.012016402 0.018220985 0.022431059
00000000: 72dd f13c 3023 d8bb 8559 0fbd 3c59 283c
00000010: 4d72 073d fe56 fe3c e016 10bd d9ab 033d
00000020: b895 313c ffb2 06bd 7f70 0c3d 50a6 013b
00000030: a867 a03b 9064 613c 5c86 2f3c 0cdb aebc
00000040: 8086 a73c 78f4 ce3c 4ed1 96bc 2461 8d3c
00000050: b017 d0bb 9ebc bdbc aef5 60bc c000 89bb
00000060: 45f0 a0bc 2e75 a43c de4d ac3c aaa7 8abc
00000070: f09e b5bc 00a0 d536 e019 003c d042 af3c
00000080: 9c6c 99bb 1868 bbbc 005e bdb8 a6f8 dd3c
00000090: 65fb 673c 6ca8 f83c c05a 3d3b a2e9 c1bc
000000a0: 5dc3 d4bb bf27 04bd ecee 003d 66a6 a3b9
000000b0: 4132 6e3c 3dcd e33b cc53 98bc 20ea 3a3b
000000c0: 749d 253c 2d82 0ebd 2e0e c8bc 0bfb 0e3d
000000d0: 24b1 913c 50d0 8d3c e023 6cbc 88ab 09bd
000000e0: 7817 6ebc aa64 b5bc aac8 5fbc d926 103d
000000f0: 8edb da3c 979e ca3c 6d7c f3bc 2ee5 5e3c
00000100: ebaa abbc f993 05bc 71c8 c13c 6fc5 f0bb
00000110: cd60 ff3c c2c3 513c ecd9 7ebc 64f7 2cbc
00000120: c155 6d3c bb76 50bc 9ee0 1fbd 7a03 933b
00000130: e2ed 513c f034 863c 786d a4ba 0b81 b93b
00000140: f977 193c 8356 c7bc e89b f93b b2c9 1bbc
00000150: 481f a53b a04a 133c aa84 f4bc 837f 053d
00000160: b5d0 003d aef3 02bd 684f 0ebc 044d 683c
00000170: b45e 40bc 5822 5dbb f292 23bd b8c2 0a3c
00000180: 973f 82bd 7a91 09bc 9ae9 82bd b73c 42bd
00000190: c00c cabd ef91 aabd a182 c1bd 7218 00bc
000001a0: c636 80bd c0ee 39bd ae8b ee3a b09c f0bb
000001b0: bf55 61bb 1cf5 9bbc 4387 98bc 5377 ddbc
000001c0: 860e 12bd 50b4 c4bc a549 9c3c d7e5 e33b
000001d0: d7e1 a9bc 2555 d43c 9017 fa3a a045 edbc
000001e0: 517f 1fbd 5873 6dbc 3bef 85bd a5a5 8abd
000001f0: 6787 fdbd 790a 42bd f13e b9bd f17b bbbd
00000200: 311c 27bd ef04 8a3b fdae 823c 33d0 cd3b
00000210: 96e8 8abc 23e2 adbc 075d e7bc 6433 19bd
00000220: 6d28 bdbc 1760 9bbc d0f2 0aba 9ea9 023d
00000230: 90d5 223c 4118 f0bc 180e 5a3c 1eb9 aebb
00000240: af49 ccbc 09dc 9f3c a913 83bc e6ba 27bd
00000250: 2a57 8f3d 2196 263d 6839 abbd fb26 06bd
00000260: c5fb 23bd a2f5 1bbd 527d 33bc 27b5 103c
00000270: 2c5e 5b3d 2d68 c23a 2b1d bcbc bfc8 d3ba
00000280: 4b39 3dbc d549 fdbc 75a7 613d a724 65bb
00000290: 9923 b43c 6e4e 91bc b174 093d 1c32 bcbc
000002a0: 600b 0fbd 6ff5 babc 353a b13c 6d2a 9e3c
000002b0: 6a40 6c3c 02fc a43c c8fc 45bc 9ea0 3abb
000002c0: 8cb4 383c 6bf2 80bb 8bce d4bb c7fd 593d
000002d0: 7c6f bc3d f1a2 0f3d 3271 cabc 9c6d 06bd
000002e0: 7526 60bd b06d 893d 1591 843c e64f 923c
000002f0: 0d80 d4bc 3940 a83d 9db1 193d 8fe6 8e3b
00000300: 44b8 df3c 473d 60bc c068 5abb da3f 9ebb
00000310: 0c6d 963b 4221 8abc 9f71 043c b34f a93c
00000320: 26bb b93c 8b11 613c f81d 753c 2726 19bc
00000330: b28d a03c 72de cb3c 1580 eabc 1a19 b3bd
00000340: fc75 553c 06c2 483c b3cb 5bbd e776 68bd
00000350: d203 a03b 50ae 14bc 6f4c ff3d f5a6 c03d
00000360: e65f 873d 56a2 193e 2351 013e 6666 7f3d
00000370: 3a71 ffbc 784d 7f3c 698a ebbc 8142 7dbc
00000380: ac12 6fbc f142 2bbc 9775 d83c 30f6 a33c
00000390: 6e60 e53d f413 b53d 521f 283d b5df d83d
000003a0: f3ca b63d 3130 1e3d 2a8d 5b3c 2f1e a73a
000003b0: fb2f 493d 23f4 a93d 7a49 113d a622 2cbb
000003c0: 0759 9e3a a1fe ca3c 2aec 033d 0100 dc3d
000003d0: 8150 df3d 9111 1b3d 4898 c73d 832f cf3d
000003e0: e02b 05bd a1f5 32bd 8fc0 d73b a543 9fbc
000003f0: 5fa6 29bc 71e0 44bc 2d44 953c 57c1 b73c

bias f4 [128]
-0.10907063 -0.028696127 0.06982904 0.010917067 0.068141766 -0.034233555 -3.478396e-05 -0.12385586
0.12331505 0.05081012 -0.09745979 0.06432247 0.04877241 0.082519546 -0.0044395374 0.13329019
0.10455477 0.07845991 -0.01093582 0.06813062 9.5667434e-05 -0.12499209 -0.064806536 0.10274594
0.05585422 -0.02671996 0.036678225 -0.034328613 -0.1498415 -0.06397999 0.086963475 -0.1371948
0.13783228 0.161954 0.032846313 0.1295285 0.012812101 0.062403675 0.044109505 -0.02836192
-0.061784193 0.011412966 -0.037502617 -0.06963548 0.0039988593 0.024829704 -0.045685276 -0.010095056
0.060496587 -0.024850652 0.32444882 0.23054726 -0.021274395 -0.052908298 0.032314487 0.040832456
0.0064524827 0.0013877247 0.10511612 -0.0006413265 -0.08211338 -0.10055256 0.040297225 0.015023768
0.15998425 0.123297624 0.10499843 0.23409005 0.08936874 0.054444484 0.1915264 -0.14079349
0.16198498 0.16768235 0.12466726 0.027026456 0.07447787 0.09740712 0.059434727 0.07237062
0.035190452 0.21908726 0.100386895 0.025858715 0.051601365 -0.040840123 0.12892416 0.042418275
0.059105646 -0.030793658 0.02533806 0.06537306 -0.07549015 -0.07162592 0.021473384 0.13161096
-0.014215249 -0.064135075 0.040412284 -0.1591795 0.05731903 0.056547772 0.116869785 -0.0015841447
0.11499195 -0.041161135 0.055005886 -0.041684646 0.019573608 0.0035375038 0.1488133 -0.10401896
0.1555038 -0.042406127 0.015371691 0.011603959 -0.05054686 0.14808023 0.26939946 0.08607645
-0.00021991682 0.03574439 0.16578238 -0.038758773 0.060323592 0.09202992 0.05158341 0.060952976
00000000: 6c60 dfbd 2414 ebbc 8702 8f3d 7fdd 323c
00000010: e98d 8b3d 7c38 0cbd fee4 11b8 24a8 fdbd
00000020: 9a8c fc3d 461e 503d 0099 c7bd 80bb 833d
00000030: 94c5 473d 0200 a93d 8a79 91bb 397d 083e
00000040: d020 d63d 97af a03d 272c 33bc 1188 8b3d
00000050: 10a1 c838 dafb ffbd 4ab9 84bd 776c d23d
00000060: 65c7 643d d1e3 dabc e83b 163d 299c 0cbd
00000070: 0d70 19be f107 83bd e819 b23d cb7c 0cbe
00000080: e823 0d3e 45d7 253e db89 063d 1ea3 043e
00000090: d9e9 513c ff9a 7f3d 2bac 343d 4257 e8bc
000000a0: 6c11 7dbd 73fd 3a3c 589c 19bd 0c9d 8ebd
000000b0: dd08 833b aa67 cb3c 7c20 3bbd bc65 25bc
000000c0: 45cb 773d 9893 cbbc 281e a63e 9514 6c3e
000000d0: a447 aebc 5fb6 58bd 325c 043d ef3f 273d
000000e0: 596f d33b 50e4 b53a 1f47 d73d b11e 28ba
000000f0: 0f2b a8bd 80ee cdbd b40e 253d 4026 763c
00000100: e9d2 233e 7783 fc3d 6b09 d73d 4db5 6f3e
00000110: f506 b73d 2e01 5f3d 7f1f 443e 2b2c 10be
00000120: 64df 253e ecb4 2b3e 8c51 ff3d 9666 dd3c
00000130: da87 983d 627d c73d d471 733d 0c37 943d
00000140: dd23 103d 6958 603e a597 cd3d a8d5 d33c
00000150: f45b 533d f947 27bd b204 043e c9be 2d3d
00000160: c318 723d fb42 fcbc c391 cf3c 50e2 853d
00000170: 949a 9abd 9cb0 92bd f3e8 af3c 06c5 063e
00000180: 13e7 68bc 4059 83bd 5a87 253d f3ff 22be
00000190: 5cc7 6a3d a39e 673d 6d59 ef3d 13a3 cfba
000001a0: e680 eb3d 9498 28bd da4d 613d 85bd 2abd
000001b0: d558 a03c 77d5 673b 8462 183e e407 d5bd
000001c0: 633c 1f3e 0cb2 2dbd 8cd9 7b3c 881e 3e3c
000001d0: 390a 4fbd 58a2 173e baee 893e da48 b03d
000001e0: 7999 66b9 b668 123d dbc2 293e 85c1 1ebd
000001f0: df15 773d 2f7a bc3d 2049 533d d4a9 793d

weight f4 [10, 128]
-0.5437989 -0.06663917 0.3097675 0.10942388 0.54479724 0.006305458 -0.14736907 0.34587544
-0.0041046245 -0.11658652 -0.42354572 -0.4654494 0.49673322 0.009556533 0.040258806 -0.24083938
-0.091988474 -0.22177565 -0.09192845 -0.12139018 0.25072676 0.2377223 -0.17505099 0.1118236
-0.40518835 -0.43460792 0.052345246 0.011755881 -0.5983712 0.13548043 0.5855795 0.39951718
0.49798042 0.02244338 0.3390662 -0.38185728 0.22174294 0.25620192 0.08166251 -0.03778079
0.022510756 -0.11853579 -0.42386833 -0.22762774 -0.5545643 0.078543514 0.1641622 0.30643958
-0.058317695 0.41541502 -0.11598068 -0.22620869 0.44644338 0.38744432 0.34813887 0.17886707
0.15312919 0.049568467 -0.34171695 -0.047120553 0.26148093 -0.32495978 0.028985273 0.06291801
0.044996895 0.2701277 0.22022444 -0.46688077 0.22380476 -0.24559556 0.07053095 -0.13814911
-0.28124452 0.63944167 -0.019059153 -0.18515232 0.28221777 0.002951823 -0.2547825 -0.50050306
-0.72905064 0.5569371 -0.4114343 -0.34145987 -0.13318883 -0.14587744 0.32313833 -0.08695165
-0.19400296 0.43549174 0.29738167 0.37835988 0.42178184 -0.24233164 -0.05721196 -0.27955145
0.112556174 -0.10791587 0.087778814 0.13596149 -0.040197536 -0.27754733 0.12000121 -0.008955133
-0.34719095 -0.19076212 -0.028706105 -0.45574868 -0.40492833 -0.5484876 -0.32897946 -0.0020642765
-0.33891517 0.08892044 -0.35759255 -0.03407941 -0.3045228 -0.23915567 -0.042554624 -0.3363608
-0.15304475 0.017325345 -0.46225744 0.027787205 -0.21909332 -0.24517454 0.21792093 -0.005362284
0.40293336 -0.40390876 0.3113633 -0.36757192 -0.25995374 0.4765132 0.07051591 -0.22563668
-0.11586682 -0.380643 0.2622106 0.43949857 -0.41675445 -0.13599841 0.24697779 -0.2802404
0.40131438 -0.2920008 0.05009682 0.15637416 -0.24476 0.27533704 0.22737391 -0.013009081
0.26838884 -0.250958 -0.09784011 0.44918543 0.31591076 -0.051768515 -0.48027274 -0.056741174
-0.25964954 0.9529112 -0.6865273 0.2378136 -0.37115046 -0.24271043 -0.4733457 -0.2036008
0.1150465 0.7964925 0.028953183 0.12893505 0.47155902 -0.013406288 -0.21901469 -0.1681304
0.29698727 0.039654955 0.5857246 -0.22241051 -0.29843014 0.2770542 0.082746804 0.17434922
-0.023106433 -0.033007294 -0.4061873 0.043979492 -0.22267877 -0.04495564 0.06442067 -0.01168748
0.31224814 -0.35874897 -0.0077390913 -0.5350472 -0.34010193 0.25571156 -0.12746206 -0.243535
-0.2402829 -0.30587497 -0.21632719 0.2180291 -0.076974526 -0.17631863 -0.031052021 -0.3215011
0.57817274 0.22629969 0.07779299 0.28185886 -0.047317434 -0.038474146 -0.08224766 0.24546379
0.68031603 -0.46621698 -0.16272919 -0.1376716 0.25068328 0.32403618 -0.05583638 0.22685738
-0.444437 -0.03390951 -0.09846704 -0.5235376 0.109840065 0.19072907 -0.057960723 0.18917117
0.2356821 0.46730345 -0.17981456 0.6947109 -0.4074042 -0.1859051 0.06170059 -0.13854192
-0.11988777 -0.2722008 -0.00901932 -0.036256332 -0.012766256 -0.49422464 -0.0445918 0.43599853
-0.07005735 -0.4144247 0.4628337 0.056568697 -0.02398446 -0.10905089 -0.33307046 0.056828305
00000000: 6836 0bbf 1e7a 88bd d999 9e3e a119 e03d
00000010: d577 0b3f 049e ce3b ebe7 16be 9616 b13e
00000020: 1680 86bb eac4 eebd fcda d8be 624f eebe
00000030: d153 fe3e 0193 1c3c 6be6 243d 999e 76be
00000040: 7464 bcbd 2819 63be fc44 bcbd 6a9b f8bd
00000050: 425f 803e 7a6d 733e 9140 33be c603 e53d
00000060: d974 cfbe ee84 debe f867 563d bd9b 403c
00000070: db2e 19bf 62bb 0a3e 8ae8 153f 848d cc3e
00000080: 4af7 fe3e 2edb b73c 169a ad3e cc82 c3be
00000090: 9510 633e e62c 833e ad3e a73d 08c0 1abd
000000a0: 7a68 b83c e4c2 f2bd 4505 d9be 3f17 69be
000000b0: edf7 0dbf 6cdb a03d 231a 283e a6e5 9c3e
000000c0: 89de 6ebd 47b1 d43e 4787 edbd 40a3 67be
000000d0: 3a94 e43e 1a5f c63e 423f b23e ee28 373e
000000e0: e6cd 1c3e 4e08 4b3d 86f5 aebe 7b01 41bd
000000f0: d4e0 853e 2161 a6be 8672 ed3c 28db 803d
00000100: aa4e 383d 2e4e 8a3e 8482 613e ff0a efbe
00000110: 132d 653e 677d 7bbe 8872 903d f676 0dbe
00000120: 48ff 8fbe 73b2 233f f121 9cbc 9298 3dbe
00000130: d97e 903e 5f73 413b da72 82be f820 00bf
00000140: 10a3 3abf 6e93 0e3f 84a7 d2be d4d3 aebe
00000150: a762 08be e560 15be 6372 a53e b513 b2bd
00000160: b6a8 46be c6f8 de3e 6942 983e 63b8 c13e
00000170: caf3 d73e c925 78be 1757 6abd 5e21 8fbe
00000180: da83 e63d ff02 ddbd 61c5 b33d 7d39 0b3e
00000190: 2ca6 24bd af1a 8ebe 32c3 f53d 8db8 12bc
000001a0: 03c3 b1be 2557 43be 1129 ebbc e457 e9be
000001b0: c452 cfbe af69 0cbf ff6f a8be d048 07bb
000001c0: 4a86 adbe eb1b b63d 5f16 b7be da96 0bbd
000001d0: 6aea 9bbe 39e5 74be c24d 2ebd 7c37 acbe
000001e0: c3b7 1cbe e2ed 8d3c 02ad ecbe fea1 e33c
000001f0: 005a 60be 090f 7bbe aa26 5f3e 19b6 afbb
00000200: 484d ce3e 21cd cebe 036b 9f3e 6332 bcbe
00000210: a818 85be 8af9 f33e a56a 903d 4d0d 67be
00000220: 954b edbd a4e3 c2be 7840 863e f505 e13e
00000230: d760 d5be 2b43 0bbe bfe7 7c3e ab7b 8fbe
00000240: 1479 cd3e 2181 95be 5332 4d3d 8c20 203e
00000250: 5ea2 7abe faf8 8c3e b5d4 683e 0a24 55bc
00000260: 436a 893e 917d 80be 6560 c8bd a2fb e53e
00000270: 0ebf a13e 390b 54bd 4fe6 f5be 6f69 68bd
00000280: c9f0 84be fdf1 733f 41c0 2fbf 6985 733e
00000290: 6f07 bebe 1589 78be 5e5a f2be ba7c 50be
000002a0: 809d eb3d efe6 4b3f 3a2f ed3c 8d07 043e
000002b0: 2f70 f13e 0ca6 5bbc 6345 60be 602a 2cbe
000002c0: b70e 983e 3c6d 223d 0cf2 153f 95bf 63be
000002d0: d6cb 98be 0cda 8d3e 2877 a93d 9a88 323e
000002e0: b449 bdbc a832 07bd c8f7 cfbe d723 343d
000002f0: e705 64be 6823 38bd fcee 833d d87c 3fbc
00000300: fdde 9f3e f2ad b7be 3498 fdbb daf8 08bf
00000310: d721 aebe a0ec 823e 6a85 02be 3d61 79be
00000320: b80c 76be a59b 9cbe e084 5dbe 0543 5f3e
00000330: d2a4 9dbd df8c 34be cf60 febc cb9b a4be
00000340: 2103 143f 1bbb 673e ee51 9f3d ce4f 903e
00000350: edcf 41bd 1197 1dbd 7671 a8bd dc5a 7b3e
00000360: 3129 2e3f feb3 eebe 7ba2 26be c9f9 0cbe
00000370: 8f59 803e 12e8 a53e b0b4 64bd 4d4d 683e
00000380: 3f8d e3be b3e4 0abd 16a9 c9bd 8f06 06bf
00000390: d4f3 e03d 7b4e 433e 3968 6dbd 16b6 413e
000003a0: a656 713e 6642 ef3e 4f21 38be 93d8 313f
000003b0: 4997 d0be e85d 3ebe c2b9 7c3d efdd 0dbe
000003c0: b887 f5bd e75d 8bbe c5c5 13bc 8581 14bd
000003d0: 8f29 51bc 030b fdbe e4a5 36bd 333b df3e
000003e0: 3a7a 8fbd 792f d4be 8af8 ec3e 94b4 673d
000003f0: 0f7b c4bc 1356 dfbd 3688 aabe ccc4 683d

bias f4 [10]
-0.28575173 0.22999826 -0.100397035 -0.16693908 0.14993462 0.26388702 -0.08153018 0.040259473
0.15942441 0.0010064042
00000000: 0d4e 92be aa84 6b3e f69c cdbd 14f2 2abe
00000010: 7688 193e 331c 873e 4cf9 a6bd 1ee7 243d
00000020: 2740 233e 52e9 833a
